base start
model/VAE3
26216
Encoder(
  (convs): ModuleList(
    (0): Conv2d_GLU(
      (cnn): Conv2d(5, 5, kernel_size=(3, 9), stride=(1, 1), padding=(1, 4))
      (gate): Conv2d(5, 5, kernel_size=(3, 9), stride=(1, 1), padding=(1, 4))
      (cnn_norm): InstanceNorm2d(5, eps=1e-05, momentum=0.1, affine=False, track_running_stats=False)
      (gate_norm): InstanceNorm2d(5, eps=1e-05, momentum=0.1, affine=False, track_running_stats=False)
    )
    (1): Conv2d_GLU(
      (cnn): Conv2d(9, 10, kernel_size=(4, 8), stride=(2, 2), padding=(1, 3))
      (gate): Conv2d(9, 10, kernel_size=(4, 8), stride=(2, 2), padding=(1, 3))
      (cnn_norm): InstanceNorm2d(10, eps=1e-05, momentum=0.1, affine=False, track_running_stats=False)
      (gate_norm): InstanceNorm2d(10, eps=1e-05, momentum=0.1, affine=False, track_running_stats=False)
    )
    (2): Conv2d_GLU(
      (cnn): Conv2d(14, 10, kernel_size=(4, 8), stride=(2, 2), padding=(1, 3))
      (gate): Conv2d(14, 10, kernel_size=(4, 8), stride=(2, 2), padding=(1, 3))
      (cnn_norm): InstanceNorm2d(10, eps=1e-05, momentum=0.1, affine=False, track_running_stats=False)
      (gate_norm): InstanceNorm2d(10, eps=1e-05, momentum=0.1, affine=False, track_running_stats=False)
    )
  )
  (conv_mu): Conv2d(14, 8, kernel_size=(9, 5), stride=(9, 1), padding=(0, 2))
  (conv_logvar): Conv2d(14, 8, kernel_size=(9, 5), stride=(9, 1), padding=(0, 2))
)
Decoder(
  (convs): ModuleList(
    (0): Conv2d_GLU(
      (cnn): ConvTranspose2d(12, 10, kernel_size=(9, 5), stride=(9, 1), padding=(0, 2))
      (gate): ConvTranspose2d(12, 10, kernel_size=(9, 5), stride=(9, 1), padding=(0, 2))
      (cnn_norm): InstanceNorm2d(10, eps=1e-05, momentum=0.1, affine=False, track_running_stats=False)
      (gate_norm): InstanceNorm2d(10, eps=1e-05, momentum=0.1, affine=False, track_running_stats=False)
    )
    (1): Conv2d_GLU(
      (cnn): ConvTranspose2d(14, 10, kernel_size=(4, 8), stride=(2, 2), padding=(1, 3))
      (gate): ConvTranspose2d(14, 10, kernel_size=(4, 8), stride=(2, 2), padding=(1, 3))
      (cnn_norm): InstanceNorm2d(10, eps=1e-05, momentum=0.1, affine=False, track_running_stats=False)
      (gate_norm): InstanceNorm2d(10, eps=1e-05, momentum=0.1, affine=False, track_running_stats=False)
    )
    (2): Conv2d_GLU(
      (cnn): ConvTranspose2d(14, 5, kernel_size=(4, 8), stride=(2, 2), padding=(1, 3))
      (gate): ConvTranspose2d(14, 5, kernel_size=(4, 8), stride=(2, 2), padding=(1, 3))
      (cnn_norm): InstanceNorm2d(5, eps=1e-05, momentum=0.1, affine=False, track_running_stats=False)
      (gate_norm): InstanceNorm2d(5, eps=1e-05, momentum=0.1, affine=False, track_running_stats=False)
    )
  )
  (conv_mu): ConvTranspose2d(9, 1, kernel_size=(3, 9), stride=(1, 1), padding=(1, 4))
  (conv_logvar): ConvTranspose2d(9, 1, kernel_size=(3, 9), stride=(1, 1), padding=(1, 4))
)
Training Settings
LR 0.001
Number of epochs 1000
.....................
EPOCH: 0
Train: rec_loss : 1.5994 / kl_loss : 0.0794 / total_loss : 1.6074 /  
DEV: rec_loss : 1.476 / kl_loss : 0.0575 / total_loss : 1.4818 /  
.....................
EPOCH: 1
Train: rec_loss : 1.4401 / kl_loss : 0.0625 / total_loss : 1.4464 /  
DEV: rec_loss : 1.4058 / kl_loss : 0.0891 / total_loss : 1.4147 /  
…
